…
[10:33:01] Warning: molecule is tagged as 3D, but all Z coords are zero
[10:33:01] Warning: molecule is tagged as 3D, but all Z coords are zero
[10:33:01] Warning: molecule is tagged as 3D, but all Z coords are zero
[10:33:01] Warning: molecule is tagged as 3D, but all Z coords are zero
[10:33:01] Warning: molecule is tagged as 3D, but all Z coords are zero
[10:33:01] Warning: molecule is tagged as 3D, but all Z coords are zero
[10:33:01] Warning: molecule is tagged as 3D, but all Z coords are zero
Trainset size: 160, valset size: 20: testset size: 20.
GatedGCNReactionNetwork(
  (embedding): UnifySize(
    (linears): ModuleDict(
      (atom): Linear(in_features=22, out_features=24, bias=False)
      (bond): Linear(in_features=11, out_features=24, bias=False)
      (global): Linear(in_features=3, out_features=24, bias=False)
    )
  )
  (gated_layers): ModuleList(
    (0): GatedGCNConv(
      (activation): ReLU()
      (A): LinearN(
        (fc_layers): ModuleList(
          (0): Linear(in_features=24, out_features=64, bias=True)
          (1): ReLU()
          (2): Linear(in_features=64, out_features=64, bias=True)
          (3): Identity()
        )
      )
      (B): LinearN(
        (fc_layers): ModuleList(
          (0): Linear(in_features=24, out_features=64, bias=True)
          (1): ReLU()
          (2): Linear(in_features=64, out_features=64, bias=True)
          (3): Identity()
        )
      )
      (C): LinearN(
        (fc_layers): ModuleList(
          (0): Linear(in_features=24, out_features=64, bias=True)
          (1): ReLU()
          (2): Linear(in_features=64, out_features=64, bias=True)
          (3): Identity()
        )
      )
      (D): LinearN(
        (fc_layers): ModuleList(
          (0): Linear(in_features=24, out_features=64, bias=True)
          (1): ReLU()
          (2): Linear(in_features=64, out_features=64, bias=True)
          (3): Identity()
        )
      )
      (E): LinearN(
        (fc_layers): ModuleList(
          (0): Linear(in_features=24, out_features=64, bias=True)
          (1): ReLU()
          (2): Linear(in_features=64, out_features=64, bias=True)
          (3): Identity()
        )
      )
      (F): LinearN(
        (fc_layers): ModuleList(
          (0): Linear(in_features=24, out_features=64, bias=True)
          (1): ReLU()
          (2): Linear(in_features=64, out_features=64, bias=True)
          (3): Identity()
        )
      )
      (G): LinearN(
        (fc_layers): ModuleList(
          (0): Linear(in_features=64, out_features=64, bias=True)
          (1): ReLU()
          (2): Linear(in_features=64, out_features=64, bias=True)
          (3): Identity()
        )
      )
      (H): LinearN(
        (fc_layers): ModuleList(
          (0): Linear(in_features=64, out_features=64, bias=True)
          (1): ReLU()
          (2): Linear(in_features=64, out_features=64, bias=True)
          (3): Identity()
        )
      )
      (I): LinearN(
        (fc_layers): ModuleList(
          (0): Linear(in_features=24, out_features=64, bias=True)
          (1): ReLU()
          (2): Linear(in_features=64, out_features=64, bias=True)
          (3): Identity()
        )
      )
      (bn_node_h): BatchNorm1d(64, eps=1e-05, momentum=0.1, affine=True, track_running_stats=True)
      (bn_node_e): BatchNorm1d(64, eps=1e-05, momentum=0.1, affine=True, track_running_stats=True)
      (bn_node_u): BatchNorm1d(64, eps=1e-05, momentum=0.1, affine=True, track_running_stats=True)
      (dropout): Identity()
    )
    (1): GatedGCNConv(
      (activation): ReLU()
      (A): LinearN(
        (fc_layers): ModuleList(
          (0): Linear(in_features=64, out_features=64, bias=True)
          (1): ReLU()
          (2): Linear(in_features=64, out_features=64, bias=True)
          (3): Identity()
        )
      )
      (B): LinearN(
        (fc_layers): ModuleList(
          (0): Linear(in_features=64, out_features=64, bias=True)
          (1): ReLU()
          (2): Linear(in_features=64, out_features=64, bias=True)
          (3): Identity()
        )
      )
      (C): LinearN(
        (fc_layers): ModuleList(
          (0): Linear(in_features=64, out_features=64, bias=True)
          (1): ReLU()
          (2): Linear(in_features=64, out_features=64, bias=True)
          (3): Identity()
        )
      )
      (D): LinearN(
        (fc_layers): ModuleList(
          (0): Linear(in_features=64, out_features=64, bias=True)
          (1): ReLU()
          (2): Linear(in_features=64, out_features=64, bias=True)
          (3): Identity()
        )
      )
      (E): LinearN(
        (fc_layers): ModuleList(
          (0): Linear(in_features=64, out_features=64, bias=True)
          (1): ReLU()
          (2): Linear(in_features=64, out_features=64, bias=True)
          (3): Identity()
        )
      )
      (F): LinearN(
        (fc_layers): ModuleList(
          (0): Linear(in_features=64, out_features=64, bias=True)
          (1): ReLU()
          (2): Linear(in_features=64, out_features=64, bias=True)
          (3): Identity()
        )
      )
      (G): LinearN(
        (fc_layers): ModuleList(
          (0): Linear(in_features=64, out_features=64, bias=True)
          (1): ReLU()
          (2): Linear(in_features=64, out_features=64, bias=True)
          (3): Identity()
        )
      )
      (H): LinearN(
        (fc_layers): ModuleList(
          (0): Linear(in_features=64, out_features=64, bias=True)
          (1): ReLU()
          (2): Linear(in_features=64, out_features=64, bias=True)
          (3): Identity()
        )
      )
      (I): LinearN(
        (fc_layers): ModuleList(
          (0): Linear(in_features=64, out_features=64, bias=True)
          (1): ReLU()
          (2): Linear(in_features=64, out_features=64, bias=True)
          (3): Identity()
        )
      )
      (bn_node_h): BatchNorm1d(64, eps=1e-05, momentum=0.1, affine=True, track_running_stats=True)
      (bn_node_e): BatchNorm1d(64, eps=1e-05, momentum=0.1, affine=True, track_running_stats=True)
      (bn_node_u): BatchNorm1d(64, eps=1e-05, momentum=0.1, affine=True, track_running_stats=True)
      (dropout): Identity()
    )
    (2): GatedGCNConv(
      (activation): ReLU()
      (A): LinearN(
        (fc_layers): ModuleList(
          (0): Linear(in_features=64, out_features=64, bias=True)
          (1): ReLU()
          (2): Linear(in_features=64, out_features=64, bias=True)
          (3): Identity()
        )
      )
      (B): LinearN(
        (fc_layers): ModuleList(
          (0): Linear(in_features=64, out_features=64, bias=True)
          (1): ReLU()
          (2): Linear(in_features=64, out_features=64, bias=True)
          (3): Identity()
        )
      )
      (C): LinearN(
        (fc_layers): ModuleList(
          (0): Linear(in_features=64, out_features=64, bias=True)
          (1): ReLU()
          (2): Linear(in_features=64, out_features=64, bias=True)
          (3): Identity()
        )
      )
      (D): LinearN(
        (fc_layers): ModuleList(
          (0): Linear(in_features=64, out_features=64, bias=True)
          (1): ReLU()
          (2): Linear(in_features=64, out_features=64, bias=True)
          (3): Identity()
        )
      )
      (E): LinearN(
        (fc_layers): ModuleList(
          (0): Linear(in_features=64, out_features=64, bias=True)
          (1): ReLU()
          (2): Linear(in_features=64, out_features=64, bias=True)
          (3): Identity()
        )
      )
      (F): LinearN(
        (fc_layers): ModuleList(
          (0): Linear(in_features=64, out_features=64, bias=True)
          (1): ReLU()
          (2): Linear(in_features=64, out_features=64, bias=True)
          (3): Identity()
        )
      )
      (G): LinearN(
        (fc_layers): ModuleList(
          (0): Linear(in_features=64, out_features=64, bias=True)
          (1): ReLU()
          (2): Linear(in_features=64, out_features=64, bias=True)
          (3): Identity()
        )
      )
      (H): LinearN(
        (fc_layers): ModuleList(
          (0): Linear(in_features=64, out_features=64, bias=True)
          (1): ReLU()
          (2): Linear(in_features=64, out_features=64, bias=True)
          (3): Identity()
        )
      )
      (I): LinearN(
        (fc_layers): ModuleList(
          (0): Linear(in_features=64, out_features=64, bias=True)
          (1): ReLU()
          (2): Linear(in_features=64, out_features=64, bias=True)
          (3): Identity()
        )
      )
      (bn_node_h): BatchNorm1d(64, eps=1e-05, momentum=0.1, affine=True, track_running_stats=True)
      (bn_node_e): BatchNorm1d(64, eps=1e-05, momentum=0.1, affine=True, track_running_stats=True)
      (bn_node_u): BatchNorm1d(64, eps=1e-05, momentum=0.1, affine=True, track_running_stats=True)
      (dropout): Identity()
    )
  )
  (readout_layer): Set2SetThenCat(
    (layers): ModuleDict(
      (atom): Set2Set(
        n_iters=6
        (lstm): LSTM(128, 64, num_layers=3)
      )
      (bond): Set2Set(
        n_iters=6
        (lstm): LSTM(128, 64, num_layers=3)
      )
    )
  )
  (fc_layers): ModuleList(
    (0): Linear(in_features=320, out_features=64, bias=True)
    (1): ReLU()
    (2): Linear(in_features=64, out_features=32, bias=True)
    (3): ReLU()
    (4): Linear(in_features=32, out_features=1, bias=True)
  )
)


# Epoch     Loss         TrainAcc        ValAcc     Time (s)
    0   9.511707e-01   2.677396e+00   1.988202e+00   2.57
    1   8.051758e-01   2.442432e+00   1.953580e+00   2.44
    2   8.056997e-01   2.252287e+00   1.915007e+00   2.47
    3   5.581881e-01   2.011836e+00   1.880363e+00   2.55
    4   4.949953e-01   1.887209e+00   1.843622e+00   2.35
…
