…
]), 'num_bonds_in_molecule': tensor([1]), 'bond_index': tensor([0])}, {'value': tensor([-3.9200]), 'num_bonds_in_molecule': tensor([1]), 'bond_index': tensor([0])}, {'value': tensor([1.5800]), 'num_bonds_in_molecule': tensor([1]), 'bond_index': tensor([0])}, {'value': tensor([-4.6200]), 'num_bonds_in_molecule': tensor([1]), 'bond_index': tensor([0])}]
tensor([-11.0100,  -4.8700,   1.8300,  -5.4500,  -4.2100,  -6.2700,   2.3400,
         -3.9200,   1.5800,  -4.6200])
Trainset size: 8, valset size: 1: testset size: 1.
GatedGCNBond(
  (embedding): UnifySize(
    (linears): ModuleDict(
      (atom): Linear(in_features=22, out_features=24, bias=False)
      (bond): Linear(in_features=11, out_features=24, bias=False)
      (global): Linear(in_features=3, out_features=24, bias=False)
    )
  )
  (gated_layers): ModuleList(
    (0): GatedGCNConv(
      (activation): ReLU()
      (A): LinearN(
        (fc_layers): ModuleList(
          (0): Linear(in_features=24, out_features=64, bias=True)
          (1): Identity()
        )
      )
      (B): LinearN(
        (fc_layers): ModuleList(
          (0): Linear(in_features=24, out_features=64, bias=True)
          (1): Identity()
        )
      )
      (C): LinearN(
        (fc_layers): ModuleList(
          (0): Linear(in_features=24, out_features=64, bias=True)
          (1): Identity()
        )
      )
      (D): LinearN(
        (fc_layers): ModuleList(
          (0): Linear(in_features=24, out_features=64, bias=True)
          (1): Identity()
        )
      )
      (E): LinearN(
        (fc_layers): ModuleList(
          (0): Linear(in_features=24, out_features=64, bias=True)
          (1): Identity()
        )
      )
      (F): LinearN(
        (fc_layers): ModuleList(
          (0): Linear(in_features=24, out_features=64, bias=True)
          (1): Identity()
        )
      )
      (G): LinearN(
        (fc_layers): ModuleList(
          (0): Linear(in_features=64, out_features=64, bias=True)
          (1): Identity()
        )
      )
      (H): LinearN(
        (fc_layers): ModuleList(
          (0): Linear(in_features=64, out_features=64, bias=True)
          (1): Identity()
        )
      )
      (I): LinearN(
        (fc_layers): ModuleList(
          (0): Linear(in_features=24, out_features=64, bias=True)
          (1): Identity()
        )
      )
      (bn_node_h): BatchNorm1d(64, eps=1e-05, momentum=0.1, affine=True, track_running_stats=True)
      (bn_node_e): BatchNorm1d(64, eps=1e-05, momentum=0.1, affine=True, track_running_stats=True)
      (bn_node_u): BatchNorm1d(64, eps=1e-05, momentum=0.1, affine=True, track_running_stats=True)
      (dropout): Identity()
    )
    (1): GatedGCNConv(
      (activation): ReLU()
      (A): LinearN(
        (fc_layers): ModuleList(
          (0): Linear(in_features=64, out_features=64, bias=True)
          (1): Identity()
        )
      )
      (B): LinearN(
        (fc_layers): ModuleList(
          (0): Linear(in_features=64, out_features=64, bias=True)
          (1): Identity()
        )
      )
      (C): LinearN(
        (fc_layers): ModuleList(
          (0): Linear(in_features=64, out_features=64, bias=True)
          (1): Identity()
        )
      )
      (D): LinearN(
        (fc_layers): ModuleList(
          (0): Linear(in_features=64, out_features=64, bias=True)
          (1): Identity()
        )
      )
      (E): LinearN(
        (fc_layers): ModuleList(
          (0): Linear(in_features=64, out_features=64, bias=True)
          (1): Identity()
        )
      )
      (F): LinearN(
        (fc_layers): ModuleList(
          (0): Linear(in_features=64, out_features=64, bias=True)
          (1): Identity()
        )
      )
      (G): LinearN(
        (fc_layers): ModuleList(
          (0): Linear(in_features=64, out_features=64, bias=True)
          (1): Identity()
        )
      )
      (H): LinearN(
        (fc_layers): ModuleList(
          (0): Linear(in_features=64, out_features=64, bias=True)
          (1): Identity()
        )
      )
      (I): LinearN(
        (fc_layers): ModuleList(
          (0): Linear(in_features=64, out_features=64, bias=True)
          (1): Identity()
        )
      )
      (bn_node_h): BatchNorm1d(64, eps=1e-05, momentum=0.1, affine=True, track_running_stats=True)
      (bn_node_e): BatchNorm1d(64, eps=1e-05, momentum=0.1, affine=True, track_running_stats=True)
      (bn_node_u): BatchNorm1d(64, eps=1e-05, momentum=0.1, affine=True, track_running_stats=True)
      (dropout): Identity()
    )
    (2): GatedGCNConv(
      (activation): ReLU()
      (A): LinearN(
        (fc_layers): ModuleList(
          (0): Linear(in_features=64, out_features=64, bias=True)
          (1): Identity()
        )
      )
      (B): LinearN(
        (fc_layers): ModuleList(
          (0): Linear(in_features=64, out_features=64, bias=True)
          (1): Identity()
        )
      )
      (C): LinearN(
        (fc_layers): ModuleList(
          (0): Linear(in_features=64, out_features=64, bias=True)
          (1): Identity()
        )
      )
      (D): LinearN(
        (fc_layers): ModuleList(
          (0): Linear(in_features=64, out_features=64, bias=True)
          (1): Identity()
        )
      )
      (E): LinearN(
        (fc_layers): ModuleList(
          (0): Linear(in_features=64, out_features=64, bias=True)
          (1): Identity()
        )
      )
      (F): LinearN(
        (fc_layers): ModuleList(
          (0): Linear(in_features=64, out_features=64, bias=True)
          (1): Identity()
        )
      )
      (G): LinearN(
        (fc_layers): ModuleList(
          (0): Linear(in_features=64, out_features=64, bias=True)
          (1): Identity()
        )
      )
      (H): LinearN(
        (fc_layers): ModuleList(
          (0): Linear(in_features=64, out_features=64, bias=True)
          (1): Identity()
        )
      )
      (I): LinearN(
        (fc_layers): ModuleList(
          (0): Linear(in_features=64, out_features=64, bias=True)
          (1): Identity()
        )
      )
      (bn_node_h): BatchNorm1d(64, eps=1e-05, momentum=0.1, affine=True, track_running_stats=True)
      (bn_node_e): BatchNorm1d(64, eps=1e-05, momentum=0.1, affine=True, track_running_stats=True)
      (bn_node_u): BatchNorm1d(64, eps=1e-05, momentum=0.1, affine=True, track_running_stats=True)
      (dropout): Identity()
    )
  )
  (fc_layers): ModuleList(
    (0): Linear(in_features=64, out_features=64, bias=True)
    (1): ReLU()
    (2): Linear(in_features=64, out_features=32, bias=True)
    (3): ReLU()
    (4): Linear(in_features=32, out_features=1, bias=True)
  )
)


# Epoch     Loss         TrainAcc        ValAcc     Time (s)
    0   1.126536e+00   3.975071e+00   1.133072e+00   0.18
    1   1.096275e+00   3.879723e+00   1.066941e+00   0.06
    2   1.151839e+00   4.092958e+00   1.029104e+00   0.05
    3   1.088539e+00   3.887204e+00   1.004513e+00   0.06
    4   1.101628e+00   3.929808e+00   1.002502e+00   0.08
…
