…
2.0400]), 'num_bonds_in_molecule': tensor([1]), 'bond_index': tensor([0])}, {'value': tensor([-5.4800]), 'num_bonds_in_molecule': tensor([1]), 'bond_index': tensor([0])}, {'value': tensor([-8.8300]), 'num_bonds_in_molecule': tensor([1]), 'bond_index': tensor([0])}, {'value': tensor([0.2900]), 'num_bonds_in_molecule': tensor([1]), 'bond_index': tensor([0])}, {'value': tensor([-5.0600]), 'num_bonds_in_molecule': tensor([1]), 'bond_index': tensor([0])}]
tensor([… )
Trainset size: 514, valset size: 64: testset size: 64.
GatedGCNBond(
  (embedding): UnifySize(
    (linears): ModuleDict(
      (atom): Linear(in_features=26, out_features=24, bias=False)
      (bond): Linear(in_features=11, out_features=24, bias=False)
      (global): Linear(in_features=3, out_features=24, bias=False)
    )
  )
  (gated_layers): ModuleList(
    (0): GatedGCNConv(
      (activation): ReLU()
      (A): LinearN(
        (fc_layers): ModuleList(
          (0): Linear(in_features=24, out_features=64, bias=True)
          (1): Identity()
        )
      )
      (B): LinearN(
        (fc_layers): ModuleList(
          (0): Linear(in_features=24, out_features=64, bias=True)
          (1): Identity()
        )
      )
      (C): LinearN(
        (fc_layers): ModuleList(
          (0): Linear(in_features=24, out_features=64, bias=True)
          (1): Identity()
        )
      )
      (D): LinearN(
        (fc_layers): ModuleList(
          (0): Linear(in_features=24, out_features=64, bias=True)
          (1): Identity()
        )
      )
      (E): LinearN(
        (fc_layers): ModuleList(
          (0): Linear(in_features=24, out_features=64, bias=True)
          (1): Identity()
        )
      )
      (F): LinearN(
        (fc_layers): ModuleList(
          (0): Linear(in_features=24, out_features=64, bias=True)
          (1): Identity()
        )
      )
      (G): LinearN(
        (fc_layers): ModuleList(
          (0): Linear(in_features=64, out_features=64, bias=True)
          (1): Identity()
        )
      )
      (H): LinearN(
        (fc_layers): ModuleList(
          (0): Linear(in_features=64, out_features=64, bias=True)
          (1): Identity()
        )
      )
      (I): LinearN(
        (fc_layers): ModuleList(
          (0): Linear(in_features=24, out_features=64, bias=True)
          (1): Identity()
        )
      )
      (bn_node_h): BatchNorm1d(64, eps=1e-05, momentum=0.1, affine=True, track_running_stats=True)
      (bn_node_e): BatchNorm1d(64, eps=1e-05, momentum=0.1, affine=True, track_running_stats=True)
      (bn_node_u): BatchNorm1d(64, eps=1e-05, momentum=0.1, affine=True, track_running_stats=True)
      (dropout): Identity()
    )
    (1): GatedGCNConv(
      (activation): ReLU()
      (A): LinearN(
        (fc_layers): ModuleList(
          (0): Linear(in_features=64, out_features=64, bias=True)
          (1): Identity()
        )
      )
      (B): LinearN(
        (fc_layers): ModuleList(
          (0): Linear(in_features=64, out_features=64, bias=True)
          (1): Identity()
        )
      )
      (C): LinearN(
        (fc_layers): ModuleList(
          (0): Linear(in_features=64, out_features=64, bias=True)
          (1): Identity()
        )
      )
      (D): LinearN(
        (fc_layers): ModuleList(
          (0): Linear(in_features=64, out_features=64, bias=True)
          (1): Identity()
        )
      )
      (E): LinearN(
        (fc_layers): ModuleList(
          (0): Linear(in_features=64, out_features=64, bias=True)
          (1): Identity()
        )
      )
      (F): LinearN(
        (fc_layers): ModuleList(
          (0): Linear(in_features=64, out_features=64, bias=True)
          (1): Identity()
        )
      )
      (G): LinearN(
        (fc_layers): ModuleList(
          (0): Linear(in_features=64, out_features=64, bias=True)
          (1): Identity()
        )
      )
      (H): LinearN(
        (fc_layers): ModuleList(
          (0): Linear(in_features=64, out_features=64, bias=True)
          (1): Identity()
        )
      )
      (I): LinearN(
        (fc_layers): ModuleList(
          (0): Linear(in_features=64, out_features=64, bias=True)
          (1): Identity()
        )
      )
      (bn_node_h): BatchNorm1d(64, eps=1e-05, momentum=0.1, affine=True, track_running_stats=True)
      (bn_node_e): BatchNorm1d(64, eps=1e-05, momentum=0.1, affine=True, track_running_stats=True)
      (bn_node_u): BatchNorm1d(64, eps=1e-05, momentum=0.1, affine=True, track_running_stats=True)
      (dropout): Identity()
    )
    (2): GatedGCNConv(
      (activation): ReLU()
      (A): LinearN(
        (fc_layers): ModuleList(
          (0): Linear(in_features=64, out_features=64, bias=True)
          (1): Identity()
        )
      )
      (B): LinearN(
        (fc_layers): ModuleList(
          (0): Linear(in_features=64, out_features=64, bias=True)
          (1): Identity()
        )
      )
      (C): LinearN(
        (fc_layers): ModuleList(
          (0): Linear(in_features=64, out_features=64, bias=True)
          (1): Identity()
        )
      )
      (D): LinearN(
        (fc_layers): ModuleList(
          (0): Linear(in_features=64, out_features=64, bias=True)
          (1): Identity()
        )
      )
      (E): LinearN(
        (fc_layers): ModuleList(
          (0): Linear(in_features=64, out_features=64, bias=True)
          (1): Identity()
        )
      )
      (F): LinearN(
        (fc_layers): ModuleList(
          (0): Linear(in_features=64, out_features=64, bias=True)
          (1): Identity()
        )
      )
      (G): LinearN(
        (fc_layers): ModuleList(
          (0): Linear(in_features=64, out_features=64, bias=True)
          (1): Identity()
        )
      )
      (H): LinearN(
        (fc_layers): ModuleList(
          (0): Linear(in_features=64, out_features=64, bias=True)
          (1): Identity()
        )
      )
      (I): LinearN(
        (fc_layers): ModuleList(
          (0): Linear(in_features=64, out_features=64, bias=True)
          (1): Identity()
        )
      )
      (bn_node_h): BatchNorm1d(64, eps=1e-05, momentum=0.1, affine=True, track_running_stats=True)
      (bn_node_e): BatchNorm1d(64, eps=1e-05, momentum=0.1, affine=True, track_running_stats=True)
      (bn_node_u): BatchNorm1d(64, eps=1e-05, momentum=0.1, affine=True, track_running_stats=True)
      (dropout): Identity()
    )
  )
  (fc_layers): ModuleList(
    (0): Linear(in_features=64, out_features=64, bias=True)
    (1): ReLU()
    (2): Linear(in_features=64, out_features=32, bias=True)
    (3): ReLU()
    (4): Linear(in_features=32, out_features=1, bias=True)
  )
)


# Epoch     Loss         TrainAcc        ValAcc     Time (s)
    0   1.122334e+00   2.858353e+00   3.308527e+00   0.70
    1   1.080503e+00   2.863687e+00   3.301423e+00   0.49
    2   1.194379e+00   2.862263e+00   3.291892e+00   0.49
    3   9.488952e-01   2.861052e+00   3.297406e+00   0.49
    4   1.032527e+00   2.836942e+00   3.295959e+00   0.48
…
